…
20221027-143532, dqn_63, 7, 512, 800000, 44, 5, 256, 0.99, 0.0003, 0.0003, 0.0, AdamW, mse_loss, G_dqn, False, 1, False, 3, 4, 1.0, 0.9995, 0.05, results, 11200, 8700: 82%, 9000: -2088.344956934899

20221130-134437, dqn_79, 0, 1, state_size = 44, action_size = 5, hidden_size = 512, batch_size = 128, buffer_size = 1000000, discount_factor = 0.99, learning_rate = 0.003, tau = 0.003, step_time = 0.01, loss_function = <function smooth_l1_loss at 0x7f82027b6b80>, epsilon = 1.0, epsilon_decay = 0.9995, epsilon_minimum = 0.05, target_update_freq = 1000, device = cuda, stack_depth = 3, frame_skip = 4, input_size = 44, iteration = 0, foo = 0, actor = Actor(
  (fa1): Linear(in_features=44, out_features=512, bias=True)
  (fa2): Linear(in_features=512, out_features=512, bias=True)
  (fa3): Linear(in_features=512, out_features=5, bias=True)
), target_actor = Actor(
  (fa1): Linear(in_features=44, out_features=512, bias=True)
  (fa2): Linear(in_features=512, out_features=512, bias=True)
  (fa3): Linear(in_features=512, out_features=5, bias=True)
), actor_optimizer = AdamW (
Parameter Group 0
    amsgrad: False
    betas: (0.9, 0.999)
    eps: 1e-08
    lr: 0.003
    weight_decay: 0.01
), networks = [Actor(
  (fa1): Linear(in_features=44, out_features=512, bias=True)
  (fa2): Linear(in_features=512, out_features=512, bias=True)
  (fa3): Linear(in_features=512, out_features=5, bias=True)
), Actor(
  (fa1): Linear(in_features=44, out_features=512, bias=True)
  (fa2): Linear(in_features=512, out_features=512, bias=True)
  (fa3): Linear(in_features=512, out_features=5, bias=True)
)], parameters = [128, 1000000, 44, 5, 512, 0.99, 0.003, 0.003, 0.01, 'AdamW', 'smooth_l1_loss', 'G_dqn', False, '1', False, 3, 4, 1.0, 0.9995, 0.05],
20221130-134448, dqn_80, 0, 1, state_size = 44, action_size = 5, hidden_size = 512, batch_size = 128, buffer_size = 1000000, discount_factor = 0.99, learning_rate = 0.003, tau = 0.003, step_time = 0.01, loss_function = <function smooth_l1_loss at 0x7f160d78eb80>, epsilon = 1.0, epsilon_decay = 0.9995, epsilon_minimum = 0.05, target_update_freq = 1000, device = cuda, stack_depth = 3, frame_skip = 4, input_size = 44, iteration = 0, foo = 0, actor = Actor(
  (fa1): Linear(in_features=44, out_features=512, bias=True)
  (fa2): Linear(in_features=512, out_features=512, bias=True)
  (fa3): Linear(in_features=512, out_features=5, bias=True)
), target_actor = Actor(
  (fa1): Linear(in_features=44, out_features=512, bias=True)
  (fa2): Linear(in_features=512, out_features=512, bias=True)
  (fa3): Linear(in_features=512, out_features=5, bias=True)
), actor_optimizer = AdamW (
Parameter Group 0
    amsgrad: False
    betas: (0.9, 0.999)
    eps: 1e-08
    lr: 0.003
    weight_decay: 0.01
), networks = [Actor(
  (fa1): Linear(in_features=44, out_features=512, bias=True)
  (fa2): Linear(in_features=512, out_features=512, bias=True)
  (fa3): Linear(in_features=512, out_features=5, bias=True)
), Actor(
  (fa1): Linear(in_features=44, out_features=512, bias=True)
  (fa2): Linear(in_features=512, out_features=512, bias=True)
  (fa3): Linear(in_features=512, out_features=5, bias=True)
20221130-134519, dqn_80, 1, s, t, a, t, e, _, s, i, z, e,  , =,  , 4, 4, ,,  , a, c, t, i, o, n, _, s, i, z, e,  , =,  , 5, ,,  , h, i, d, d, e, n, _, s, i, z, e,  , =,  , 5, 1, 2, ,,  , b, a, t, c, h, _, s, i, z, e,  , =,  , 1, 2, 8, ,,  , b, u, f, f, e, r, _, s, i, z, e,  , =,  , 1, 0, 0, 0, 0, 0, 0, ,,  , d, i, s, c, o, u, n, t, _, f, a, c, t, o, r,  
…
 ', ,,  , F, a, l, s, e, ,,  , 3, ,,  , 4, ,,  , 1, ., 0, ,,  , 0, ., 9, 9, 9, 5, ,,  , 0, ., 0, 5, ], ,,  , results, 1, 0: 0%, 0: -inf
20221130-142703, dqn_81, 0, 1, state_size = 44, action_size = 5, hidden_size = 512, batch_size = 128, buffer_size = 1000000, discount_factor = 0.99, learning_rate = 0.003, tau = 0.003, step_time = 0.01, loss_function = <function smooth_l1_loss at 0x7fdbe9b39af0>, epsilon = 1.0, epsilon_decay = 0.9995, epsilon_minimum = 0.05, target_update_freq = 1000, device = cuda, stack_depth = 3, frame_skip = 4, input_size = 44, iteration = 0, foo = 0, actor = Actor(
  (fa1): Linear(in_features=44, out_features=512, bias=True)
  (fa2): Linear(in_features=512, out_features=512, bias=True)
  (fa3): Linear(in_features=512, out_features=5, bias=True)
), target_actor = Actor(
  (fa1): Linear(in_features=44, out_features=512, bias=True)
  (fa2): Linear(in_features=512, out_features=512, bias=True)
  (fa3): Linear(in_features=512, out_features=5, bias=True)
), actor_optimizer = AdamW (
Parameter Group 0
    amsgrad: False
    betas: (0.9, 0.999)
    eps: 1e-08
    lr: 0.003
    weight_decay: 0.01
), networks = [Actor(
  (fa1): Linear(in_features=44, out_features=512, bias=True)
  (fa2): Linear(in_features=512, out_features=512, bias=True)
  (fa3): Linear(in_features=512, out_features=5, bias=True)
), Actor(
  (fa1): Linear(in_features=44, out_features=512, bias=True)
  (fa2): Linear(in_features=512, out_features=512, bias=True)
  (fa3): Linear(in_features=512, out_features=5, bias=True)
)], parameters = [128, 1000000, 44, 5, 512, 0.99, 0.003, 0.003, 0.01, 'AdamW', 'smooth_l1_loss', 'G_dqn', False, '1', False, 3, 4, 1.0, 0.9995, 0.05],
20221130-142824, dqn_82, 0, 1, state_size = 44, action_size = 5, hidden_size = 512, batch_size = 128, buffer_size = 1000000, discount_factor = 0.99, learning_rate = 0.003, tau = 0.003, step_time = 0.01, loss_function = <function smooth_l1_loss at 0x7f2d4bc27af0>, epsilon = 1.0, epsilon_decay = 0.9995, epsilon_minimum = 0.05, target_update_freq = 1000, device = cuda, stack_depth = 3, frame_skip = 4, input_size = 44, iteration = 0, foo = 0, actor = Actor(
  (fa1): Linear(in_features=44, out_features=512, bias=True)
  (fa2): Linear(in_features=512, out_features=512, bias=True)
  (fa3): Linear(in_features=512, out_features=5, bias=True)
), target_actor = Actor(
  (fa1): Linear(in_features=44, out_features=512, bias=True)
  (fa2): Linear(in_features=512, out_features=512, bias=True)
  (fa3): Linear(in_features=512, out_features=5, bias=True)
), actor_optimizer = AdamW (
Parameter Group 0
    amsgrad: False
    betas: (0.9, 0.999)
    eps: 1e-08
    lr: 0.003
    weight_decay: 0.01
), networks = [Actor(
  (fa1): Linear(in_features=44, out_features=512, bias=True)
  (fa2): Linear(in_features=512, out_features=512, bias=True)
  (fa3): Linear(in_features=512, out_features=5, bias=True)
), Actor(
  (fa1): Linear(in_features=44, out_features=512, bias=True)
  (fa2): Linear(in_features=512, out_features=512, bias=True)
  (fa3): Linear(in_features=512, out_features=5, bias=True)
)], parameters = [128, 1000000, 44, 5, 512, 0.99, 0.003, 0.003, 0.01, 'AdamW', 'smooth_l1_loss', 'G_dqn', False, '1', False, 3, 4, 1.0, 0.9995, 0.05],
20221130-152917, dqn_83, 0, 1, state_size = 44, action_size = 5, hidden_size = 512, batch_size = 128, buffer_size = 1000000, discount_factor = 0.99, learning_rate = 0.003, tau = 0.003, step_time = 0.01, loss_function = <function smooth_l1_loss at 0x7fbe61673af0>, epsilon = 1.0, epsilon_decay = 0.9995, epsilon_minimum = 0.05, target_update_freq = 1000, device = cuda, stack_depth = 3, frame_skip = 4, input_size = 44, iteration = 0, foo = 0, actor = Actor(
  (fa1): Linear(in_features=44, out_features=512, bias=True)
  (fa2): Linear(in_features=512, out_features=512, bias=True)
  (fa3): Linear(in_features=512, out_features=5, bias=True)
), target_actor = Actor(
  (fa1): Linear(in_features=44, out_features=512, bias=True)
  (fa2): Linear(in_features=512, out_features=512, bias=True)
  (fa3): Linear(in_features=512, out_features=5, bias=True)
), actor_optimizer = AdamW (
Parameter Group 0
    amsgrad: False
    betas: (0.9, 0.999)
    eps: 1e-08
    lr: 0.003
    weight_decay: 0.01
), networks = [Actor(
  (fa1): Linear(in_features=44, out_features=512, bias=True)
  (fa2): Linear(in_features=512, out_features=512, bias=True)
  (fa3): Linear(in_features=512, out_features=5, bias=True)
), Actor(
  (fa1): Linear(in_features=44, out_features=512, bias=True)
  (fa2): Linear(in_features=512, out_features=512, bias=True)
  (fa3): Linear(in_features=512, out_features=5, bias=True)
)], parameters = [128, 1000000, 44, 5, 512, 0.99, 0.003, 0.003, 0.01, 'AdamW', 'smooth_l1_loss', 'G_dqn', False, '1', False, 3, 4, 1.0, 0.9995, 0.05],
20221130-152935, dqn_84, 0, 1, state_size = 44, action_size = 5, hidden_size = 512, batch_size = 128, buffer_size = 1000000, discount_factor = 0.99, learning_rate = 0.003, tau = 0.003, step_time = 0.01, loss_function = <function smooth_l1_loss at 0x7f412cc50af0>, epsilon = 1.0, epsilon_decay = 0.9995, epsilon_minimum = 0.05, target_update_freq = 1000, device = cuda, stack_depth = 3, frame_skip = 4, input_size = 44, iteration = 0, foo = 0, actor = Actor(
  (fa1): Linear(in_features=44, out_features=512, bias=True)
  (fa2): Linear(in_features=512, out_features=512, bias=True)
  (fa3): Linear(in_features=512, out_features=5, bias=True)
), target_actor = Actor(
  (fa1): Linear(in_features=44, out_features=512, bias=True)
  (fa2): Linear(in_features=512, out_features=512, bias=True)
  (fa3): Linear(in_features=512, out_features=5, bias=True)
), actor_optimizer = AdamW (
Parameter Group 0
    amsgrad: False
    betas: (0.9, 0.999)
    eps: 1e-08
    lr: 0.003
    weight_decay: 0.01
), networks = [Actor(
  (fa1): Linear(in_features=44, out_features=512, bias=True)
  (fa2): Linear(in_features=512, out_features=512, bias=True)
  (fa3): Linear(in_features=512, out_features=5, bias=True)
), Actor(
  (fa1): Linear(in_features=44, out_features=512, bias=True)
  (fa2): Linear(in_features=512, out_features=512, bias=True)
  (fa3): Linear(in_features=512, out_features=5, bias=True)
)], parameters = [128, 1000000, 44, 5, 512, 0.99, 0.003, 0.003, 0.01, 'AdamW', 'smooth_l1_loss', 'G_dqn', False, '1', False, 3, 4, 1.0, 0.9995, 0.05],
20221130-153217, dqn_85, 0, 1, state_size = 44, action_size = 5, hidden_size = 512, batch_size = 128, buffer_size = 1000000, discount_factor = 0.99, learning_rate = 0.003, tau = 0.003, step_time = 0.01, loss_function = <function smooth_l1_loss at 0x7f5e474edaf0>, epsilon = 1.0, epsilon_decay = 0.9995, epsilon_minimum = 0.05, target_update_freq = 1000, device = cuda, stack_depth = 3, frame_skip = 4, input_size = 44, iteration = 0, foo = 0, actor = Actor(
  (fa1): Linear(in_features=44, out_features=512, bias=True)
  (fa2): Linear(in_features=512, out_features=512, bias=True)
  (fa3): Linear(in_features=512, out_features=5, bias=True)
), target_actor = Actor(
  (fa1): Linear(in_features=44, out_features=512, bias=True)
  (fa2): Linear(in_features=512, out_features=512, bias=True)
  (fa3): Linear(in_features=512, out_features=5, bias=True)
), actor_optimizer = AdamW (
Parameter Group 0
    amsgrad: False
    betas: (0.9, 0.999)
    eps: 1e-08
    lr: 0.003
    weight_decay: 0.01
), networks = [Actor(
  (fa1): Linear(in_features=44, out_features=512, bias=True)
  (fa2): Linear(in_features=512, out_features=512, bias=True)
  (fa3): Linear(in_features=512, out_features=5, bias=True)
), Actor(
  (fa1): Linear(in_features=44, out_features=512, bias=True)
  (fa2): Linear(in_features=512, out_features=512, bias=True)
  (fa3): Linear(in_features=512, out_features=5, bias=True)
)], parameters = [128, 1000000, 44, 5, 512, 0.99, 0.003, 0.003, 0.01, 'AdamW', 'smooth_l1_loss', 'G_dqn', False, '1', False, 3, 4, 1.0, 0.9995, 0.05],
20221202-072112, dqn_86, 0, 1, state_size = 44, action_size = 5, hidden_size = 512, batch_size = 128, buffer_size = 1000000, discount_factor = 0.99, learning_rate = 0.003, tau = 0.003, step_time = 0.01, loss_function = <function smooth_l1_loss at 0x7f63d5f9a700>, epsilon = 1.0, epsilon_decay = 0.9995, epsilon_minimum = 0.05, target_update_freq = 1000, possible_actions = [[0.3, -1.0], [0.3, -0.5], [1.0, 0.0], [0.3, 0.5], [0.3, 1.0]], device = cuda, stack_depth = 3, frame_skip = 4, input_size = 44, iteration = 0, foo = 0, actor = Actor(
  (fa1): Linear(in_features=44, out_features=512, bias=True)
  (fa2): Linear(in_features=512, out_features=512, bias=True)
  (fa3): Linear(in_features=512, out_features=5, bias=True)
), target_actor = Actor(
  (fa1): Linear(in_features=44, out_features=512, bias=True)
  (fa2): Linear(in_features=512, out_features=512, bias=True)
  (fa3): Linear(in_features=512, out_features=5, bias=True)
), actor_optimizer = AdamW (
Parameter Group 0
    amsgrad: False
    betas: (0.9, 0.999)
    eps: 1e-08
    lr: 0.003
    weight_decay: 0.01
), networks = [Actor(
  (fa1): Linear(in_features=44, out_features=512, bias=True)
  (fa2): Linear(in_features=512, out_features=512, bias=True)
  (fa3): Linear(in_features=512, out_features=5, bias=True)
), Actor(
  (fa1): Linear(in_features=44, out_features=512, bias=True)
  (fa2): Linear(in_features=512, out_features=512, bias=True)
  (fa3): Linear(in_features=512, out_features=5, bias=True)
)], parameters = [128, 1000000, 44, 5, 512, 0.99, 0.003, 0.003, 0.01, 'AdamW', 'smooth_l1_loss', 'G_dqn', False, '1', False, 3, 4, 1.0, 0.9995, 0.05],
20221202-072202, dqn_87, 0, 1, state_size = 44, action_size = 5, hidden_size = 512, batch_size = 128, buffer_size = 1000000, discount_factor = 0.99, learning_rate = 0.003, tau = 0.003, step_time = 0.01, loss_function = <function smooth_l1_loss at 0x7f18e51a0700>, epsilon = 1.0, epsilon_decay = 0.9995, epsilon_minimum = 0.05, target_update_freq = 1000, possible_actions = [[0.3, -1.0], [0.3, -0.5], [1.0, 0.0], [0.3, 0.5], [0.3, 1.0]], device = cuda, stack_depth = 3, frame_skip = 4, input_size = 44, iteration = 0, foo = 0, actor = Actor(
  (fa1): Linear(in_features=44, out_features=512, bias=True)
  (fa2): Linear(in_features=512, out_features=512, bias=True)
  (fa3): Linear(in_features=512, out_features=5, bias=True)
), target_actor = Actor(
  (fa1): Linear(in_features=44, out_features=512, bias=True)
  (fa2): Linear(in_features=512, out_features=512, bias=True)
  (fa3): Linear(in_features=512, out_features=5, bias=True)
), actor_optimizer = AdamW (
Parameter Group 0
    amsgrad: False
    betas: (0.9, 0.999)
    eps: 1e-08
    lr: 0.003
    weight_decay: 0.01
), networks = [Actor(
  (fa1): Linear(in_features=44, out_features=512, bias=True)
  (fa2): Linear(in_features=512, out_features=512, bias=True)
  (fa3): Linear(in_features=512, out_features=5, bias=True)
), Actor(
  (fa1): Linear(in_features=44, out_features=512, bias=True)
  (fa2): Linear(in_features=512, out_features=512, bias=True)
  (fa3): Linear(in_features=512, out_features=5, bias=True)
)], parameters = [128, 1000000, 44, 5, 512, 0.99, 0.003, 0.003, 0.01, 'AdamW', 'smooth_l1_loss', 'G_dqn', False, '1', False, 3, 4, 1.0, 0.9995, 0.05],
20221202-072233, dqn_88, 0, 1, state_size = 44, action_size = 5, hidden_size = 512, batch_size = 128, buffer_size = 1000000, discount_factor = 0.99, learning_rate = 0.003, tau = 0.003, step_time = 0.01, loss_function = <function smooth_l1_loss at 0x7fe01c1ad790>, epsilon = 1.0, epsilon_decay = 0.9995, epsilon_minimum = 0.05, target_update_freq = 1000, possible_actions = [[0.3, -1.0], [0.3, -0.5], [1.0, 0.0], [0.3, 0.5], [0.3, 1.0]], device = cuda, stack_depth = 3, frame_skip = 4, input_size = 44, iteration = 0, foo = 0, actor = Actor(
  (fa1): Linear(in_features=44, out_features=512, bias=True)
  (fa2): Linear(in_features=512, out_features=512, bias=True)
  (fa3): Linear(in_features=512, out_features=5, bias=True)
), target_actor = Actor(
  (fa1): Linear(in_features=44, out_features=512, bias=True)
  (fa2): Linear(in_features=512, out_features=512, bias=True)
  (fa3): Linear(in_features=512, out_features=5, bias=True)
), actor_optimizer = AdamW (
Parameter Group 0
    amsgrad: False
    betas: (0.9, 0.999)
    eps: 1e-08
    lr: 0.003
    weight_decay: 0.01
), networks = [Actor(
  (fa1): Linear(in_features=44, out_features=512, bias=True)
  (fa2): Linear(in_features=512, out_features=512, bias=True)
  (fa3): Linear(in_features=512, out_features=5, bias=True)
), Actor(
  (fa1): Linear(in_features=44, out_features=512, bias=True)
  (fa2): Linear(in_features=512, out_features=512, bias=True)
  (fa3): Linear(in_features=512, out_features=5, bias=True)
)], parameters = [128, 1000000, 44, 5, 512, 0.99, 0.003, 0.003, 0.01, 'AdamW', 'smooth_l1_loss', 'G_dqn', False, '1', False, 3, 4, 1.0, 0.9995, 0.05],
20221202-072336, dqn_89, 0, 1, state_size = 44, action_size = 5, hidden_size = 512, batch_size = 128, buffer_size = 1000000, discount_factor = 0.99, learning_rate = 0.003, tau = 0.003, step_time = 0.01, loss_function = <function smooth_l1_loss at 0x7ff986a79790>, epsilon = 1.0, epsilon_decay = 0.9995, epsilon_minimum = 0.05, target_update_freq = 1000, possible_actions = [[0.3, -1.0], [0.3, -0.5], [1.0, 0.0], [0.3, 0.5], [0.3, 1.0]], device = cuda, stack_depth = 3, frame_skip = 4, input_size = 44, iteration = 0, foo = 0, actor = Actor(
  (fa1): Linear(in_features=44, out_features=512, bias=True)
  (fa2): Linear(in_features=512, out_features=512, bias=True)
  (fa3): Linear(in_features=512, out_features=5, bias=True)
), target_actor = Actor(
  (fa1): Linear(in_features=44, out_features=512, bias=True)
  (fa2): Linear(in_features=512, out_features=512, bias=True)
  (fa3): Linear(in_features=512, out_features=5, bias=True)
), actor_optimizer = AdamW (
Parameter Group 0
    amsgrad: False
    betas: (0.9, 0.999)
    eps: 1e-08
    lr: 0.003
    weight_decay: 0.01
), networks = [Actor(
  (fa1): Linear(in_features=44, out_features=512, bias=True)
  (fa2): Linear(in_features=512, out_features=512, bias=True)
  (fa3): Linear(in_features=512, out_features=5, bias=True)
), Actor(
  (fa1): Linear(in_features=44, out_features=512, bias=True)
  (fa2): Linear(in_features=512, out_features=512, bias=True)
  (fa3): Linear(in_features=512, out_features=5, bias=True)
)], parameters = [128, 1000000, 44, 5, 512, 0.99, 0.003, 0.003, 0.01, 'AdamW', 'smooth_l1_loss', 'G_dqn', False, '1', False, 3, 4, 1.0, 0.9995, 0.05],
20221202-072447, dqn_90, 0, 1, state_size = 44, action_size = 5, hidden_size = 512, batch_size = 128, buffer_size = 1000000, discount_factor = 0.99, learning_rate = 0.003, tau = 0.003, step_time = 0.01, loss_function = <function smooth_l1_loss at 0x7f6b34f17790>, epsilon = 1.0, epsilon_decay = 0.9995, epsilon_minimum = 0.05, target_update_freq = 1000, possible_actions = [[0.3, -1.0], [0.3, -0.5], [1.0, 0.0], [0.3, 0.5], [0.3, 1.0]], device = cuda, stack_depth = 3, frame_skip = 4, input_size = 44, iteration = 0, foo = 0, actor = Actor(
  (fa1): Linear(in_features=44, out_features=512, bias=True)
  (fa2): Linear(in_features=512, out_features=512, bias=True)
  (fa3): Linear(in_features=512, out_features=5, bias=True)
), target_actor = Actor(
  (fa1): Linear(in_features=44, out_features=512, bias=True)
  (fa2): Linear(in_features=512, out_features=512, bias=True)
  (fa3): Linear(in_features=512, out_features=5, bias=True)
), actor_optimizer = AdamW (
Parameter Group 0
    amsgrad: False
    betas: (0.9, 0.999)
    eps: 1e-08
    lr: 0.003
    weight_decay: 0.01
), networks = [Actor(
  (fa1): Linear(in_features=44, out_features=512, bias=True)
  (fa2): Linear(in_features=512, out_features=512, bias=True)
  (fa3): Linear(in_features=512, out_features=5, bias=True)
), Actor(
  (fa1): Linear(in_features=44, out_features=512, bias=True)
  (fa2): Linear(in_features=512, out_features=512, bias=True)
  (fa3): Linear(in_features=512, out_features=5, bias=True)
20221202-072504, dqn_90, 1, s, t, a, t, e, _, s, i, z, e,  , =,  , 4, 4, ,,  , a, c, t, i, o, n, _, s, i, z, e,  , =,  , 5, ,,  , h, i, d, d, e, n, _, s, i, z, e,  , =,  , 5, 1, 2, ,,  , b, a, t, c, h, _, s, i, z, e,  , =,  , 1, 2, 8, ,,  , b, u, f, f, e, r, _, s, i, z, e,  , =,  , 1, 0, 0, 0, 0, 0, 0, ,,  , d, i, s, c, o, u, n, t, _, f, a, c, t, o, r,  
…
,  , 0, ., 0, 5, ], ,,  , results, 1, 0: 0%, 0: -inf
20221202-072634, dqn_91, 0, 1, state_size = 44, action_size = 5, hidden_size = 512, batch_size = 128, buffer_size = 1000000, discount_factor = 0.99, learning_rate = 0.003, tau = 0.003, step_time = 0.01, loss_function = <function smooth_l1_loss at 0x7fb5d2ef8820>, epsilon = 1.0, epsilon_decay = 0.9995, epsilon_minimum = 0.05, target_update_freq = 1000, possible_actions = [[0.3, -1.0], [0.3, -0.5], [1.0, 0.0], [0.3, 0.5], [0.3, 1.0]], device = cuda, stack_depth = 3, frame_skip = 4, input_size = 44, iteration = 0, foo = 0, actor = Actor(
  (fa1): Linear(in_features=44, out_features=512, bias=True)
  (fa2): Linear(in_features=512, out_features=512, bias=True)
  (fa3): Linear(in_features=512, out_features=5, bias=True)
), target_actor = Actor(
  (fa1): Linear(in_features=44, out_features=512, bias=True)
  (fa2): Linear(in_features=512, out_features=512, bias=True)
  (fa3): Linear(in_features=512, out_features=5, bias=True)
), actor_optimizer = AdamW (
Parameter Group 0
    amsgrad: False
    betas: (0.9, 0.999)
    eps: 1e-08
    lr: 0.003
    weight_decay: 0.01
), networks = [Actor(
  (fa1): Linear(in_features=44, out_features=512, bias=True)
  (fa2): Linear(in_features=512, out_features=512, bias=True)
  (fa3): Linear(in_features=512, out_features=5, bias=True)
), Actor(
  (fa1): Linear(in_features=44, out_features=512, bias=True)
  (fa2): Linear(in_features=512, out_features=512, bias=True)
  (fa3): Linear(in_features=512, out_features=5, bias=True)
20221202-072657, dqn_91, 1, s, t, a, t, e, _, s, i, z, e,  , =,  , 4, 4, ,,  , a, c, t, i, o, n, _, s, i, z, e,  , =,  , 5, ,,  , h, i, d, d, e, n, _, s, i, z, e,  , =,  , 5, 1, 2, ,,  , b, a, t, c, h, _, s, i, z, e,  , =,  , 1, 2, 8, ,,  , b, u, f, f, e, r, _, s, i, z, e,  , =,  , 1, 0, 0, 0, 0, 0, 0, ,,  , d, i, s, c, o, u, n, t, _, f, a, c, t, o, r,  
…
